artefatos_mlp/escalador_params.npz (npz, 1304 bytes, 3 tensors)

medianas f4 [8]
1701.9753 -16.7 -49.6 24.186155 227.43056 82.731186 66.29706 935.67
00000000: 36bf d444 9a99 85c1 6666 46c2 3f7d c141
00000010: 396e 6343 5e76 a542 1898 8442 e1ea 6944

mu f4 [8]
6703.474 -16.422857 -49.582493 24.561455 234.33519 77.582466 65.104416 1505.6586
00000000: cb7b d145 0362 83c1 7954 46c2 dc7d c441
00000010: cf55 6a43 392a 9b42 7635 8242 1335 bc44

std f4 [8]
22696.307 1.2127855 1.0707626 2.623802 61.81266 26.972252 17.202065 1758.3789
00000000: 9d50 b146 8e3c 9b3f c00e 893f 5fec 2740
00000010: 2a40 7742 2cc7 d741 d49d 8941 20cc db44
